…
lock.3.extractor.attn.out_proj.bias, interaction_block.3.extractor.ffn.fc1.weight, interaction_block.3.extractor.ffn.fc1.bias, interaction_block.3.extractor.ffn.dwconv.dwconv.weight, interaction_block.3.extractor.ffn.dwconv.dwconv.bias, interaction_block.3.extractor.ffn.fc2.weight, interaction_block.3.extractor.ffn.fc2.bias, interaction_block.3.extractor.ffn_norm.weight, interaction_block.3.extractor.ffn_norm.bias

2025-03-03 13:50:36,684 - mmseg - INFO - EncoderDecoder(
  (backbone): transnext_tiny(
    (spm): ModuleList(
      (0): SpatialPriorModule(
        (stem): Sequential(
          (0): Conv2d(3, 64, kernel_size=(3, 3), stride=(2, 2), padding=(1, 1), bias=False)
          (1): SyncBatchNorm(64, eps=1e-05, momentum=0.1, affine=True, track_running_stats=True)
          (2): ReLU(inplace=True)
          (3): Conv2d(64, 64, kernel_size=(3, 3), stride=(1, 1), padding=(1, 1), bias=False)
          (4): SyncBatchNorm(64, eps=1e-05, momentum=0.1, affine=True, track_running_stats=True)
          (5): ReLU(inplace=True)
        )
        (maxpool): MaxPool2d(kernel_size=3, stride=2, padding=1, dilation=1, ceil_mode=False)
        (fc): Conv2d(64, 72, kernel_size=(1, 1), stride=(1, 1))
      )
      (1): SpatialPriorModule(
        (stem): Sequential(
          (0): Conv2d(72, 64, kernel_size=(3, 3), stride=(2, 2), padding=(1, 1), bias=False)
          (1): SyncBatchNorm(64, eps=1e-05, momentum=0.1, affine=True, track_running_stats=True)
          (2): ReLU(inplace=True)
          (3): Conv2d(64, 64, kernel_size=(3, 3), stride=(1, 1), padding=(1, 1), bias=False)
          (4): SyncBatchNorm(64, eps=1e-05, momentum=0.1, affine=True, track_running_stats=True)
          (5): ReLU(inplace=True)
        )
        (maxpool): MaxPool2d(kernel_size=3, stride=2, padding=1, dilation=1, ceil_mode=False)
        (fc): Conv2d(64, 144, kernel_size=(1, 1), stride=(1, 1))
      )
      (2): SpatialPriorModule(
        (stem): Sequential(
          (0): Conv2d(144, 64, kernel_size=(3, 3), stride=(2, 2), padding=(1, 1), bias=False)
          (1): SyncBatchNorm(64, eps=1e-05, momentum=0.1, affine=True, track_running_stats=True)
          (2): ReLU(inplace=True)
          (3): Conv2d(64, 64, kernel_size=(3, 3), stride=(1, 1), padding=(1, 1), bias=False)
          (4): SyncBatchNorm(64, eps=1e-05, momentum=0.1, affine=True, track_running_stats=True)
          (5): ReLU(inplace=True)
        )
        (maxpool): MaxPool2d(kernel_size=3, stride=2, padding=1, dilation=1, ceil_mode=False)
        (fc): Conv2d(64, 288, kernel_size=(1, 1), stride=(1, 1))
      )
      (3): SpatialPriorModule(
        (stem): Sequential(
          (0): Conv2d(288, 64, kernel_size=(3, 3), stride=(2, 2), padding=(1, 1), bias=False)
          (1): SyncBatchNorm(64, eps=1e-05, momentum=0.1, affine=True, track_running_stats=True)
          (2): ReLU(inplace=True)
          (3): Conv2d(64, 64, kernel_size=(3, 3), stride=(1, 1), padding=(1, 1), bias=False)
          (4): SyncBatchNorm(64, eps=1e-05, momentum=0.1, affine=True, track_running_stats=True)
          (5): ReLU(inplace=True)
        )
        (maxpool): MaxPool2d(kernel_size=3, stride=2, padding=1, dilation=1, ceil_mode=False)
        (fc): Conv2d(64, 576, kernel_size=(1, 1), stride=(1, 1))
      )
    )
    (interaction_block): ModuleList(
      (0): InteractionBlock(
        (injector): Injector(
          (query_norm): LayerNorm((72,), eps=1e-06, elementwise_affine=True)
          (feat_norm): LayerNorm((72,), eps=1e-06, elementwise_affine=True)
          (attn): SparseCrossAttention(
            (q_proj): Linear(in_features=72, out_features=72, bias=True)
            (k_proj): Linear(in_features=72, out_features=72, bias=True)
            (v_proj): Linear(in_features=72, out_features=72, bias=True)
            (out_proj): Linear(in_features=72, out_features=72, bias=True)
          )
        )
        (extractor): Extractor(
          (query_norm): LayerNorm((72,), eps=1e-06, elementwise_affine=True)
          (feat_norm): LayerNorm((72,), eps=1e-06, elementwise_affine=True)
          (attn): SparseCrossAttention(
            (q_proj): Linear(in_features=72, out_features=72, bias=True)
            (k_proj): Linear(in_features=72, out_features=72, bias=True)
            (v_proj): Linear(in_features=72, out_features=72, bias=True)
            (out_proj): Linear(in_features=72, out_features=72, bias=True)
          )
          (ffn): ConvFFN(
            (fc1): Linear(in_features=72, out_features=18, bias=True)
            (dwconv): DWConv(
              (dwconv): Conv2d(18, 18, kernel_size=(3, 3), stride=(1, 1), padding=(1, 1), groups=18)
            )
            (act): GELU(approximate='none')
            (fc2): Linear(in_features=18, out_features=72, bias=True)
            (drop): Dropout(p=0.0, inplace=False)
          )
          (ffn_norm): LayerNorm((72,), eps=1e-06, elementwise_affine=True)
          (drop_path): Identity()
        )
      )
      (1): InteractionBlock(
        (injector): Injector(
          (query_norm): LayerNorm((144,), eps=1e-06, elementwise_affine=True)
          (feat_norm): LayerNorm((144,), eps=1e-06, elementwise_affine=True)
          (attn): SparseCrossAttention(
            (q_proj): Linear(in_features=144, out_features=144, bias=True)
            (k_proj): Linear(in_features=144, out_features=144, bias=True)
            (v_proj): Linear(in_features=144, out_features=144, bias=True)
            (out_proj): Linear(in_features=144, out_features=144, bias=True)
          )
        )
        (extractor): Extractor(
          (query_norm): LayerNorm((144,), eps=1e-06, elementwise_affine=True)
          (feat_norm): LayerNorm((144,), eps=1e-06, elementwise_affine=True)
          (attn): SparseCrossAttention(
            (q_proj): Linear(in_features=144, out_features=144, bias=True)
            (k_proj): Linear(in_features=144, out_features=144, bias=True)
            (v_proj): Linear(in_features=144, out_features=144, bias=True)
            (out_proj): Linear(in_features=144, out_features=144, bias=True)
          )
          (ffn): ConvFFN(
            (fc1): Linear(in_features=144, out_features=36, bias=True)
            (dwconv): DWConv(
              (dwconv): Conv2d(36, 36, kernel_size=(3, 3), stride=(1, 1), padding=(1, 1), groups=36)
            )
            (act): GELU(approximate='none')
            (fc2): Linear(in_features=36, out_features=144, bias=True)
            (drop): Dropout(p=0.0, inplace=False)
          )
          (ffn_norm): LayerNorm((144,), eps=1e-06, elementwise_affine=True)
          (drop_path): Identity()
        )
      )
      (2): InteractionBlock(
        (injector): Injector(
          (query_norm): LayerNorm((288,), eps=1e-06, elementwise_affine=True)
          (feat_norm): LayerNorm((288,), eps=1e-06, elementwise_affine=True)
          (attn): SparseCrossAttention(
            (q_proj): Linear(in_features=288, out_features=288, bias=True)
            (k_proj): Linear(in_features=288, out_features=288, bias=True)
            (v_proj): Linear(in_features=288, out_features=288, bias=True)
            (out_proj): Linear(in_features=288, out_features=288, bias=True)
          )
        )
        (extractor): Extractor(
          (query_norm): LayerNorm((288,), eps=1e-06, elementwise_affine=True)
          (feat_norm): LayerNorm((288,), eps=1e-06, elementwise_affine=True)
          (attn): SparseCrossAttention(
            (q_proj): Linear(in_features=288, out_features=288, bias=True)
            (k_proj): Linear(in_features=288, out_features=288, bias=True)
            (v_proj): Linear(in_features=288, out_features=288, bias=True)
            (out_proj): Linear(in_features=288, out_features=288, bias=True)
          )
          (ffn): ConvFFN(
            (fc1): Linear(in_features=288, out_features=72, bias=True)
            (dwconv): DWConv(
              (dwconv): Conv2d(72, 72, kernel_size=(3, 3), stride=(1, 1), padding=(1, 1), groups=72)
            )
            (act): GELU(approximate='none')
            (fc2): Linear(in_features=72, out_features=288, bias=True)
            (drop): Dropout(p=0.0, inplace=False)
          )
          (ffn_norm): LayerNorm((288,), eps=1e-06, elementwise_affine=True)
          (drop_path): Identity()
        )
      )
      (3): InteractionBlock(
        (injector): Injector(
          (query_norm): LayerNorm((576,), eps=1e-06, elementwise_affine=True)
          (feat_norm): LayerNorm((576,), eps=1e-06, elementwise_affine=True)
          (attn): SparseCrossAttention(
            (q_proj): Linear(in_features=576, out_features=576, bias=True)
            (k_proj): Linear(in_features=576, out_features=576, bias=True)
            (v_proj): Linear(in_features=576, out_features=576, bias=True)
            (out_proj): Linear(in_features=576, out_features=576, bias=True)
          )
        )
        (extractor): Extractor(
          (query_norm): LayerNorm((576,), eps=1e-06, elementwise_affine=True)
          (feat_norm): LayerNorm((576,), eps=1e-06, elementwise_affine=True)
          (attn): SparseCrossAttention(
            (q_proj): Linear(in_features=576, out_features=576, bias=True)
            (k_proj): Linear(in_features=576, out_features=576, bias=True)
            (v_proj): Linear(in_features=576, out_features=576, bias=True)
            (out_proj): Linear(in_features=576, out_features=576, bias=True)
          )
          (ffn): ConvFFN(
            (fc1): Linear(in_features=576, out_features=144, bias=True)
            (dwconv): DWConv(
              (dwconv): Conv2d(144, 144, kernel_size=(3, 3), stride=(1, 1), padding=(1, 1), groups=144)
            )
            (act): GELU(approximate='none')
            (fc2): Linear(in_features=144, out_features=576, bias=True)
            (drop): Dropout(p=0.0, inplace=False)
          )
          (ffn_norm): LayerNorm((576,), eps=1e-06, elementwise_affine=True)
          (drop_path): Identity()
        )
      )
    )
    (patch_embed1): OverlapPatchEmbed(
      (proj): Conv2d(3, 72, kernel_size=(7, 7), stride=(4, 4), padding=(3, 3))
      (norm): LayerNorm((72,), eps=1e-05, elementwise_affine=True)
    )
    (block1): ModuleList(
      (0): Block(
        (norm1): LayerNorm((72,), eps=1e-06, elementwise_affine=True)
        (attn): AggregatedAttention(
          (unfold): Unfold(kernel_size=3, dilation=1, padding=1, stride=1)
          (q): Linear(in_features=72, out_features=72, bias=True)
          (kv): Linear(in_features=72, out_features=144, bias=True)
          (attn_drop): Dropout(p=0.0, inplace=False)
          (proj): Linear(in_features=72, out_features=72, bias=True)
          (proj_drop): Dropout(p=0.0, inplace=False)
          (sr): Conv2d(72, 72, kernel_size=(1, 1), stride=(1, 1))
          (norm): LayerNorm((72,), eps=1e-05, elementwise_affine=True)
          (act): GELU(approximate='none')
          (cpb_fc1): Linear(in_features=2, out_features=512, bias=True)
          (cpb_act): ReLU(inplace=True)
          (cpb_fc2): Linear(in_features=512, out_features=3, bias=True)
        )
        (norm2): LayerNorm((72,), eps=1e-06, elementwise_affine=True)
        (mlp): ConvolutionalGLU(
          (fc1): Linear(in_features=72, out_features=768, bias=True)
          (dwconv): DWConv(
            (dwconv): Conv2d(384, 384, kernel_size=(3, 3), stride=(1, 1), padding=(1, 1), groups=384)
          )
          (act): GELU(approximate='none')
          (fc2): Linear(in_features=384, out_features=72, bias=True)
          (drop): Dropout(p=0.0, inplace=False)
        )
        (drop_path): Identity()
      )
      (1): Block(
        (norm1): LayerNorm((72,), eps=1e-06, elementwise_affine=True)
        (attn): AggregatedAttention(
          (unfold): Unfold(kernel_size=3, dilation=1, padding=1, stride=1)
          (q): Linear(in_features=72, out_features=72, bias=True)
          (kv): Linear(in_features=72, out_features=144, bias=True)
          (attn_drop): Dropout(p=0.0, inplace=False)
          (proj): Linear(in_features=72, out_features=72, bias=True)
          (proj_drop): Dropout(p=0.0, inplace=False)
          (sr): Conv2d(72, 72, kernel_size=(1, 1), stride=(1, 1))
          (norm): LayerNorm((72,), eps=1e-05, elementwise_affine=True)
          (act): GELU(approximate='none')
          (cpb_fc1): Linear(in_features=2, out_features=512, bias=True)
          (cpb_act): ReLU(inplace=True)
          (cpb_fc2): Linear(in_features=512, out_features=3, bias=True)
        )
        (norm2): LayerNorm((72,), eps=1e-06, elementwise_affine=True)
        (mlp): ConvolutionalGLU(
          (fc1): Linear(in_features=72, out_features=768, bias=True)
          (dwconv): DWConv(
            (dwconv): Conv2d(384, 384, kernel_size=(3, 3), stride=(1, 1), padding=(1, 1), groups=384)
          )
          (act): GELU(approximate='none')
          (fc2): Linear(in_features=384, out_features=72, bias=True)
          (drop): Dropout(p=0.0, inplace=False)
        )
        (drop_path): DropPath()
      )
    )
    (norm1): LayerNorm((72,), eps=1e-06, elementwise_affine=True)
    (patch_embed2): OverlapPatchEmbed(
      (proj): Conv2d(72, 144, kernel_size=(3, 3), stride=(2, 2), padding=(1, 1))
      (norm): LayerNorm((144,), eps=1e-05, elementwise_affine=True)
    )
    (block2): ModuleList(
      (0-1): 2 x Block(
        (norm1): LayerNorm((144,), eps=1e-06, elementwise_affine=True)
        (attn): AggregatedAttention(
          (unfold): Unfold(kernel_size=3, dilation=1, padding=1, stride=1)
          (q): Linear(in_features=144, out_features=144, bias=True)
          (kv): Linear(in_features=144, out_features=288, bias=True)
          (attn_drop): Dropout(p=0.0, inplace=False)
          (proj): Linear(in_features=144, out_features=144, bias=True)
          (proj_drop): Dropout(p=0.0, inplace=False)
          (sr): Conv2d(144, 144, kernel_size=(1, 1), stride=(1, 1))
          (norm): LayerNorm((144,), eps=1e-05, elementwise_affine=True)
          (act): GELU(approximate='none')
          (cpb_fc1): Linear(in_features=2, out_features=512, bias=True)
          (cpb_act): ReLU(inplace=True)
          (cpb_fc2): Linear(in_features=512, out_features=6, bias=True)
        )
        (norm2): LayerNorm((144,), eps=1e-06, elementwise_affine=True)
        (mlp): ConvolutionalGLU(
          (fc1): Linear(in_features=144, out_features=1536, bias=True)
          (dwconv): DWConv(
            (dwconv): Conv2d(768, 768, kernel_size=(3, 3), stride=(1, 1), padding=(1, 1), groups=768)
          )
          (act): GELU(approximate='none')
          (fc2): Linear(in_features=768, out_features=144, bias=True)
          (drop): Dropout(p=0.0, inplace=False)
        )
        (drop_path): DropPath()
      )
    )
    (norm2): LayerNorm((144,), eps=1e-06, elementwise_affine=True)
    (patch_embed3): OverlapPatchEmbed(
      (proj): Conv2d(144, 288, kernel_size=(3, 3), stride=(2, 2), padding=(1, 1))
      (norm): LayerNorm((288,), eps=1e-05, elementwise_affine=True)
    )
    (block3): ModuleList(
      (0-14): 15 x Block(
        (norm1): LayerNorm((288,), eps=1e-06, elementwise_affine=True)
        (attn): AggregatedAttention(
          (unfold): Unfold(kernel_size=3, dilation=1, padding=1, stride=1)
          (q): Linear(in_features=288, out_features=288, bias=True)
          (kv): Linear(in_features=288, out_features=576, bias=True)
          (attn_drop): Dropout(p=0.0, inplace=False)
          (proj): Linear(in_features=288, out_features=288, bias=True)
          (proj_drop): Dropout(p=0.0, inplace=False)
          (sr): Conv2d(288, 288, kernel_size=(1, 1), stride=(1, 1))
          (norm): LayerNorm((288,), eps=1e-05, elementwise_affine=True)
          (act): GELU(approximate='none')
          (cpb_fc1): Linear(in_features=2, out_features=512, bias=True)
          (cpb_act): ReLU(inplace=True)
          (cpb_fc2): Linear(in_features=512, out_features=12, bias=True)
        )
        (norm2): LayerNorm((288,), eps=1e-06, elementwise_affine=True)
        (mlp): ConvolutionalGLU(
          (fc1): Linear(in_features=288, out_features=1536, bias=True)
          (dwconv): DWConv(
            (dwconv): Conv2d(768, 768, kernel_size=(3, 3), stride=(1, 1), padding=(1, 1), groups=768)
          )
          (act): GELU(approximate='none')
          (fc2): Linear(in_features=768, out_features=288, bias=True)
          (drop): Dropout(p=0.0, inplace=False)
        )
        (drop_path): DropPath()
      )
    )
    (norm3): LayerNorm((288,), eps=1e-06, elementwise_affine=True)
    (patch_embed4): OverlapPatchEmbed(
      (proj): Conv2d(288, 576, kernel_size=(3, 3), stride=(2, 2), padding=(1, 1))
      (norm): LayerNorm((576,), eps=1e-05, elementwise_affine=True)
    )
    (block4): ModuleList(
      (0-1): 2 x Block(
        (norm1): LayerNorm((576,), eps=1e-06, elementwise_affine=True)
        (attn): Attention(
          (qkv): Linear(in_features=576, out_features=1728, bias=True)
          (attn_drop): Dropout(p=0.0, inplace=False)
          (proj): Linear(in_features=576, out_features=576, bias=True)
          (proj_drop): Dropout(p=0.0, inplace=False)
          (cpb_fc1): Linear(in_features=2, out_features=512, bias=True)
          (cpb_act): ReLU(inplace=True)
          (cpb_fc2): Linear(in_features=512, out_features=24, bias=True)
        )
        (norm2): LayerNorm((576,), eps=1e-06, elementwise_affine=True)
        (mlp): ConvolutionalGLU(
          (fc1): Linear(in_features=576, out_features=3072, bias=True)
          (dwconv): DWConv(
            (dwconv): Conv2d(1536, 1536, kernel_size=(3, 3), stride=(1, 1), padding=(1, 1), groups=1536)
          )
          (act): GELU(approximate='none')
          (fc2): Linear(in_features=1536, out_features=576, bias=True)
          (drop): Dropout(p=0.0, inplace=False)
        )
        (drop_path): DropPath()
      )
    )
    (norm4): LayerNorm((576,), eps=1e-06, elementwise_affine=True)
  )
  (decode_head): UPerHead(
    input_transform=multiple_select, ignore_index=255, align_corners=False
    (loss_decode): CrossEntropyLoss(avg_non_ignore=True)
    (conv_seg): Conv2d(512, 150, kernel_size=(1, 1), stride=(1, 1))
    (dropout): Dropout2d(p=0.1, inplace=False)
    (psp_modules): PPM(
      (0): Sequential(
        (0): AdaptiveAvgPool2d(output_size=1)
        (1): ConvModule(
          (conv): Conv2d(576, 512, kernel_size=(1, 1), stride=(1, 1), bias=False)
          (bn): SyncBatchNorm(512, eps=1e-05, momentum=0.1, affine=True, track_running_stats=True)
          (activate): ReLU(inplace=True)
        )
      )
      (1): Sequential(
        (0): AdaptiveAvgPool2d(output_size=2)
        (1): ConvModule(
          (conv): Conv2d(576, 512, kernel_size=(1, 1), stride=(1, 1), bias=False)
          (bn): SyncBatchNorm(512, eps=1e-05, momentum=0.1, affine=True, track_running_stats=True)
          (activate): ReLU(inplace=True)
        )
      )
      (2): Sequential(
        (0): AdaptiveAvgPool2d(output_size=3)
        (1): ConvModule(
          (conv): Conv2d(576, 512, kernel_size=(1, 1), stride=(1, 1), bias=False)
          (bn): SyncBatchNorm(512, eps=1e-05, momentum=0.1, affine=True, track_running_stats=True)
          (activate): ReLU(inplace=True)
        )
      )
      (3): Sequential(
        (0): AdaptiveAvgPool2d(output_size=6)
        (1): ConvModule(
          (conv): Conv2d(576, 512, kernel_size=(1, 1), stride=(1, 1), bias=False)
          (bn): SyncBatchNorm(512, eps=1e-05, momentum=0.1, affine=True, track_running_stats=True)
          (activate): ReLU(inplace=True)
        )
      )
    )
    (bottleneck): ConvModule(
      (conv): Conv2d(2624, 512, kernel_size=(3, 3), stride=(1, 1), padding=(1, 1), bias=False)
      (bn): SyncBatchNorm(512, eps=1e-05, momentum=0.1, affine=True, track_running_stats=True)
      (activate): ReLU(inplace=True)
    )
    (lateral_convs): ModuleList(
      (0): ConvModule(
        (conv): Conv2d(72, 512, kernel_size=(1, 1), stride=(1, 1), bias=False)
        (bn): SyncBatchNorm(512, eps=1e-05, momentum=0.1, affine=True, track_running_stats=True)
        (activate): ReLU()
      )
      (1): ConvModule(
        (conv): Conv2d(144, 512, kernel_size=(1, 1), stride=(1, 1), bias=False)
        (bn): SyncBatchNorm(512, eps=1e-05, momentum=0.1, affine=True, track_running_stats=True)
        (activate): ReLU()
      )
      (2): ConvModule(
        (conv): Conv2d(288, 512, kernel_size=(1, 1), stride=(1, 1), bias=False)
        (bn): SyncBatchNorm(512, eps=1e-05, momentum=0.1, affine=True, track_running_stats=True)
        (activate): ReLU()
      )
    )
    (fpn_convs): ModuleList(
      (0-2): 3 x ConvModule(
        (conv): Conv2d(512, 512, kernel_size=(3, 3), stride=(1, 1), padding=(1, 1), bias=False)
        (bn): SyncBatchNorm(512, eps=1e-05, momentum=0.1, affine=True, track_running_stats=True)
        (activate): ReLU()
      )
    )
    (fpn_bottleneck): ConvModule(
      (conv): Conv2d(2048, 512, kernel_size=(3, 3), stride=(1, 1), padding=(1, 1), bias=False)
      (bn): SyncBatchNorm(512, eps=1e-05, momentum=0.1, affine=True, track_running_stats=True)
      (activate): ReLU(inplace=True)
    )
  )
  init_cfg={'type': 'Normal', 'std': 0.01, 'override': {'name': 'conv_seg'}}
  (auxiliary_head): FCNHead(
    input_transform=None, ignore_index=255, align_corners=False
    (loss_decode): CrossEntropyLoss(avg_non_ignore=True)
    (conv_seg): Conv2d(256, 150, kernel_size=(1, 1), stride=(1, 1))
    (dropout): Dropout2d(p=0.1, inplace=False)
    (convs): Sequential(
      (0): ConvModule(
        (conv): Conv2d(288, 256, kernel_size=(3, 3), stride=(1, 1), padding=(1, 1), bias=False)
        (bn): SyncBatchNorm(256, eps=1e-05, momentum=0.1, affine=True, track_running_stats=True)
        (activate): ReLU(inplace=True)
      )
    )
  )
  init_cfg={'type': 'Normal', 'std': 0.01, 'override': {'name': 'conv_seg'}}
)
2025-03-03 13:50:36,989 - mmseg - INFO - Loaded 20210 images
Learning rate for the group with params: 6e-05
…
