…
/home/jzy/anaconda3/envs/trans/lib/python3.8/site-packages/torch/functional.py:504: UserWarning: torch.meshgrid: in an upcoming release, it will be required to pass the indexing argument. (Triggered internally at ../aten/src/ATen/native/TensorShape.cpp:3483.)
  return _VF.meshgrid(tensors, **kwargs)  # type: ignore[attr-defined]
2025-03-03 21:12:48,870 - mmseg - INFO - load checkpoint from local path: pretrained/transnext_tiny_224_1k.pth
2025-03-03 21:12:48,935 - mmseg - WARNING - The model and loaded state dict do not match exactly

unexpected key in source state_dict: head.weight, head.bias

2025-03-03 21:12:51,746 - mmseg - INFO - EncoderDecoder(
  (backbone): transnext_tiny(
    (patch_embed1): OverlapPatchEmbed(
      (proj): Conv2d(3, 72, kernel_size=(7, 7), stride=(4, 4), padding=(3, 3))
      (norm): LayerNorm((72,), eps=1e-05, elementwise_affine=True)
    )
    (block1): ModuleList(
      (0): Block(
        (norm1): LayerNorm((72,), eps=1e-06, elementwise_affine=True)
        (attn): AggregatedAttention(
          (unfold): Unfold(kernel_size=3, dilation=1, padding=1, stride=1)
          (q): Linear(in_features=72, out_features=72, bias=True)
          (kv): Linear(in_features=72, out_features=144, bias=True)
          (attn_drop): Dropout(p=0.0, inplace=False)
          (proj): Linear(in_features=72, out_features=72, bias=True)
          (proj_drop): Dropout(p=0.0, inplace=False)
          (sr): Conv2d(72, 72, kernel_size=(1, 1), stride=(1, 1))
          (norm): LayerNorm((72,), eps=1e-05, elementwise_affine=True)
          (act): GELU(approximate='none')
          (cpb_fc1): Linear(in_features=2, out_features=512, bias=True)
          (cpb_act): ReLU(inplace=True)
          (cpb_fc2): Linear(in_features=512, out_features=3, bias=True)
        )
        (norm2): LayerNorm((72,), eps=1e-06, elementwise_affine=True)
        (mlp): ConvolutionalGLU(
          (fc1): Linear(in_features=72, out_features=768, bias=True)
          (dwconv): DWConv(
            (dwconv): Conv2d(384, 384, kernel_size=(3, 3), stride=(1, 1), padding=(1, 1), groups=384)
          )
          (act): GELU(approximate='none')
          (fc2): Linear(in_features=384, out_features=72, bias=True)
          (drop): Dropout(p=0.0, inplace=False)
        )
        (drop_path): Identity()
      )
      (1): Block(
        (norm1): LayerNorm((72,), eps=1e-06, elementwise_affine=True)
        (attn): AggregatedAttention(
          (unfold): Unfold(kernel_size=3, dilation=1, padding=1, stride=1)
          (q): Linear(in_features=72, out_features=72, bias=True)
          (kv): Linear(in_features=72, out_features=144, bias=True)
          (attn_drop): Dropout(p=0.0, inplace=False)
          (proj): Linear(in_features=72, out_features=72, bias=True)
          (proj_drop): Dropout(p=0.0, inplace=False)
          (sr): Conv2d(72, 72, kernel_size=(1, 1), stride=(1, 1))
          (norm): LayerNorm((72,), eps=1e-05, elementwise_affine=True)
          (act): GELU(approximate='none')
          (cpb_fc1): Linear(in_features=2, out_features=512, bias=True)
          (cpb_act): ReLU(inplace=True)
          (cpb_fc2): Linear(in_features=512, out_features=3, bias=True)
        )
        (norm2): LayerNorm((72,), eps=1e-06, elementwise_affine=True)
        (mlp): ConvolutionalGLU(
          (fc1): Linear(in_features=72, out_features=768, bias=True)
          (dwconv): DWConv(
            (dwconv): Conv2d(384, 384, kernel_size=(3, 3), stride=(1, 1), padding=(1, 1), groups=384)
          )
          (act): GELU(approximate='none')
          (fc2): Linear(in_features=384, out_features=72, bias=True)
          (drop): Dropout(p=0.0, inplace=False)
        )
        (drop_path): DropPath()
      )
    )
    (norm1): LayerNorm((72,), eps=1e-06, elementwise_affine=True)
    (patch_embed2): OverlapPatchEmbed(
      (proj): Conv2d(72, 144, kernel_size=(3, 3), stride=(2, 2), padding=(1, 1))
      (norm): LayerNorm((144,), eps=1e-05, elementwise_affine=True)
    )
    (block2): ModuleList(
      (0-1): 2 x Block(
        (norm1): LayerNorm((144,), eps=1e-06, elementwise_affine=True)
        (attn): AggregatedAttention(
          (unfold): Unfold(kernel_size=3, dilation=1, padding=1, stride=1)
          (q): Linear(in_features=144, out_features=144, bias=True)
          (kv): Linear(in_features=144, out_features=288, bias=True)
          (attn_drop): Dropout(p=0.0, inplace=False)
          (proj): Linear(in_features=144, out_features=144, bias=True)
          (proj_drop): Dropout(p=0.0, inplace=False)
          (sr): Conv2d(144, 144, kernel_size=(1, 1), stride=(1, 1))
          (norm): LayerNorm((144,), eps=1e-05, elementwise_affine=True)
          (act): GELU(approximate='none')
          (cpb_fc1): Linear(in_features=2, out_features=512, bias=True)
          (cpb_act): ReLU(inplace=True)
          (cpb_fc2): Linear(in_features=512, out_features=6, bias=True)
        )
        (norm2): LayerNorm((144,), eps=1e-06, elementwise_affine=True)
        (mlp): ConvolutionalGLU(
          (fc1): Linear(in_features=144, out_features=1536, bias=True)
          (dwconv): DWConv(
            (dwconv): Conv2d(768, 768, kernel_size=(3, 3), stride=(1, 1), padding=(1, 1), groups=768)
          )
          (act): GELU(approximate='none')
          (fc2): Linear(in_features=768, out_features=144, bias=True)
          (drop): Dropout(p=0.0, inplace=False)
        )
        (drop_path): DropPath()
      )
    )
    (norm2): LayerNorm((144,), eps=1e-06, elementwise_affine=True)
    (patch_embed3): OverlapPatchEmbed(
      (proj): Conv2d(144, 288, kernel_size=(3, 3), stride=(2, 2), padding=(1, 1))
      (norm): LayerNorm((288,), eps=1e-05, elementwise_affine=True)
    )
    (block3): ModuleList(
      (0-14): 15 x Block(
        (norm1): LayerNorm((288,), eps=1e-06, elementwise_affine=True)
        (attn): AggregatedAttention(
          (unfold): Unfold(kernel_size=3, dilation=1, padding=1, stride=1)
          (q): Linear(in_features=288, out_features=288, bias=True)
          (kv): Linear(in_features=288, out_features=576, bias=True)
          (attn_drop): Dropout(p=0.0, inplace=False)
          (proj): Linear(in_features=288, out_features=288, bias=True)
          (proj_drop): Dropout(p=0.0, inplace=False)
          (sr): Conv2d(288, 288, kernel_size=(1, 1), stride=(1, 1))
          (norm): LayerNorm((288,), eps=1e-05, elementwise_affine=True)
          (act): GELU(approximate='none')
          (cpb_fc1): Linear(in_features=2, out_features=512, bias=True)
          (cpb_act): ReLU(inplace=True)
          (cpb_fc2): Linear(in_features=512, out_features=12, bias=True)
        )
        (norm2): LayerNorm((288,), eps=1e-06, elementwise_affine=True)
        (mlp): ConvolutionalGLU(
          (fc1): Linear(in_features=288, out_features=1536, bias=True)
          (dwconv): DWConv(
            (dwconv): Conv2d(768, 768, kernel_size=(3, 3), stride=(1, 1), padding=(1, 1), groups=768)
          )
          (act): GELU(approximate='none')
          (fc2): Linear(in_features=768, out_features=288, bias=True)
          (drop): Dropout(p=0.0, inplace=False)
        )
        (drop_path): DropPath()
      )
    )
    (norm3): LayerNorm((288,), eps=1e-06, elementwise_affine=True)
    (patch_embed4): OverlapPatchEmbed(
      (proj): Conv2d(288, 576, kernel_size=(3, 3), stride=(2, 2), padding=(1, 1))
      (norm): LayerNorm((576,), eps=1e-05, elementwise_affine=True)
    )
    (block4): ModuleList(
      (0-1): 2 x Block(
        (norm1): LayerNorm((576,), eps=1e-06, elementwise_affine=True)
        (attn): Attention(
          (qkv): Linear(in_features=576, out_features=1728, bias=True)
          (attn_drop): Dropout(p=0.0, inplace=False)
          (proj): Linear(in_features=576, out_features=576, bias=True)
          (proj_drop): Dropout(p=0.0, inplace=False)
          (cpb_fc1): Linear(in_features=2, out_features=512, bias=True)
          (cpb_act): ReLU(inplace=True)
          (cpb_fc2): Linear(in_features=512, out_features=24, bias=True)
        )
        (norm2): LayerNorm((576,), eps=1e-06, elementwise_affine=True)
        (mlp): ConvolutionalGLU(
          (fc1): Linear(in_features=576, out_features=3072, bias=True)
          (dwconv): DWConv(
            (dwconv): Conv2d(1536, 1536, kernel_size=(3, 3), stride=(1, 1), padding=(1, 1), groups=1536)
          )
          (act): GELU(approximate='none')
          (fc2): Linear(in_features=1536, out_features=576, bias=True)
          (drop): Dropout(p=0.0, inplace=False)
        )
        (drop_path): DropPath()
      )
    )
    (norm4): LayerNorm((576,), eps=1e-06, elementwise_affine=True)
  )
  (decode_head): MoEHead(
    input_transform=multiple_select, ignore_index=255, align_corners=False
    (loss_decode): CrossEntropyLoss(avg_non_ignore=True)
    (conv_seg): Conv2d(128, 150, kernel_size=(1, 1), stride=(1, 1))
    (dropout): Dropout2d(p=0.1, inplace=False)
    (ffn_layers): ModuleList(
      (0): SwitchMoE(
        (experts): ModuleList(
          (0-1): 2 x MixFFN(
            (fc1): Linear(in_features=72, out_features=288, bias=True)
            (dwconv): DWConv(
              (dwconv): Conv2d(288, 288, kernel_size=(3, 3), stride=(1, 1), padding=(1, 1), groups=288)
            )
            (act): GELU(approximate='none')
            (fc2): Linear(in_features=288, out_features=768, bias=True)
            (drop): Dropout(p=0.0, inplace=False)
          )
        )
        (gate): SwitchGate(
          (w_gate): Linear(in_features=72, out_features=2, bias=True)
        )
      )
      (1): SwitchMoE(
        (experts): ModuleList(
          (0-1): 2 x MixFFN(
            (fc1): Linear(in_features=144, out_features=576, bias=True)
            (dwconv): DWConv(
              (dwconv): Conv2d(576, 576, kernel_size=(3, 3), stride=(1, 1), padding=(1, 1), groups=576)
            )
            (act): GELU(approximate='none')
            (fc2): Linear(in_features=576, out_features=768, bias=True)
            (drop): Dropout(p=0.0, inplace=False)
          )
        )
        (gate): SwitchGate(
          (w_gate): Linear(in_features=144, out_features=2, bias=True)
        )
      )
      (2): SwitchMoE(
        (experts): ModuleList(
          (0-1): 2 x MixFFN(
            (fc1): Linear(in_features=288, out_features=1152, bias=True)
            (dwconv): DWConv(
              (dwconv): Conv2d(1152, 1152, kernel_size=(3, 3), stride=(1, 1), padding=(1, 1), groups=1152)
            )
            (act): GELU(approximate='none')
            (fc2): Linear(in_features=1152, out_features=768, bias=True)
            (drop): Dropout(p=0.0, inplace=False)
          )
        )
        (gate): SwitchGate(
          (w_gate): Linear(in_features=288, out_features=2, bias=True)
        )
      )
      (3): SwitchMoE(
        (experts): ModuleList(
          (0-1): 2 x MixFFN(
            (fc1): Linear(in_features=576, out_features=2304, bias=True)
            (dwconv): DWConv(
              (dwconv): Conv2d(2304, 2304, kernel_size=(3, 3), stride=(1, 1), padding=(1, 1), groups=2304)
            )
            (act): GELU(approximate='none')
            (fc2): Linear(in_features=2304, out_features=768, bias=True)
            (drop): Dropout(p=0.0, inplace=False)
          )
        )
        (gate): SwitchGate(
          (w_gate): Linear(in_features=576, out_features=2, bias=True)
        )
      )
    )
    (norm): LayerNorm((768,), eps=1e-05, elementwise_affine=True)
    (conv): ModuleList(
      (0): Conv2d(72, 768, kernel_size=(1, 1), stride=(1, 1))
      (1): Conv2d(144, 768, kernel_size=(1, 1), stride=(1, 1))
      (2): Conv2d(288, 768, kernel_size=(1, 1), stride=(1, 1))
      (3): Conv2d(576, 768, kernel_size=(1, 1), stride=(1, 1))
    )
    (linear_fuse): ConvModule(
      (conv): Conv2d(3072, 768, kernel_size=(1, 1), stride=(1, 1), bias=False)
      (bn): SyncBatchNorm(768, eps=1e-05, momentum=0.1, affine=True, track_running_stats=True)
      (activate): ReLU(inplace=True)
    )
    (linear_pred): Conv2d(768, 150, kernel_size=(1, 1), stride=(1, 1))
  )
  init_cfg={'type': 'Normal', 'std': 0.01, 'override': {'name': 'conv_seg'}}
)
2025-03-03 21:12:51,866 - mmseg - INFO - Loaded 20210 images
2025-03-03 21:12:52,212 - mmseg - INFO - Loaded 2000 images
2025-03-03 21:12:52,212 - mmseg - INFO - Start running, host: jzy@zcf-641, work_dir: /home/jzy/TransNeXt/work_dirs/moenet_transnext_tiny_512x512_160k_ade20k_ss
…
